model2.pth (torch, 75624 bytes, 8 tensors)

conv1.weight f4 [16, 1, 3]
00000000: 343d 7cc1 24ae 79c1 6127 89c1 2432 f7ba
00000010: 7279 3dc0 6382 04bd 0bf3 eebf 9f1f eebf
00000020: a56a 20bf be84 a9bb 869d dfbf 105d 8bbf
00000030: 7e5e 23c0 1ba4 e3bf d41e b8be 95fd 9ebc
00000040: fa55 0bc0 f0d3 e3bf 7bfe 5ec0 bc16 debf
00000050: 1ca3 c5be aa5e bfbc 1281 25bf e193 8abb
00000060: 7833 04bd c983 3fbb 4087 3fbc 4186 3dc0
00000070: 8fac 98bb 7687 9dbe 578b dabe 246d 56bb
00000080: 4181 45bd 8ad7 7abe 8767 bbbc e467 f7be
00000090: 3a95 9bbf 96ab 36bf 2f87 48bc e2b5 89be
000000a0: 07f7 11bf f2e3 d6bb 1714 85bd 2c54 89bf
000000b0: bc6e bdbf c486 dcbe 548b e9bc b506 51be
-15.764942 -15.605015 -17.144228 -0.0018859548 -2.9605374 -0.03235091 -1.8667921 -1.86034
-0.62662727 -0.005173295 -1.7469947 -1.0887775 -2.5526423 -1.7784456 -0.3596102 -0.019408027
-2.1771226 -1.7799053 -3.4842823 -1.7350688 -0.38601005 -0.023360569 -0.6465007 -0.0042290543
-0.032275647 -0.0029222837 -0.011689961 -2.9613192 -0.0046592425 -0.3076741 -0.42684433 -0.0032718861
-0.04821897 -0.24496284 -0.022876514 -0.4832145 -1.2154915 -0.7135557 -0.0122392615 -0.26896578
-0.5701756 -0.006557935 -0.064979725 -1.0728812 -1.4799418 -0.43071568 -0.02850882 -0.20412715

conv1.bias f4 [16]
00000000: 66b7 8a41 eb9d 2cbd 07f6 e43f 1e2c 95bc
00000010: 5fc3 b940 001f 80bc f502 9940 27ff e4be
00000020: f555 3ebf 9aa9 e840 2739 babd 8819 aa40
00000030: cccb 56c0 71c1 c8bf f3d2 8a3f 239c 14c0
17.33955 -0.04214279 1.7887582 -0.018209513 5.805099 -0.015639782 4.781611 -0.44725916
-0.7434991 7.2707033 -0.09092932 5.3156166 -3.3561888 -1.5684034 1.0845627 -2.3220298

conv2.weight f4 [32, 16, 3]
00000000: 57bc 793d e5a2 39be b2b0 3b3c d3fb 57bd
00000010: a777 1dbe 544a 20bd 2ac6 15be aa72 0cbb
00000020: a533 e8bc 6157 40bd f55c 513d 3390 303d
00000030: acf9 9abc 5c17 cf3d 2444 4f3d d8b8 2dbe
00000040: 5b88 033d 116a efbd a5ca c23c 2fc0 053e
00000050: b5b3 fabd a04a 30bd eb8d f9bd 5fad 02ba
00000060: 6535 bcbc 9e63 bf3d 9baf a3bc dfeb 21bd
00000070: af19 64be 7ad2 98bd 1f92 0cbe 80c1 33be
00000080: 65af 02bc 0c12 c6bd a4e1 c7bb 6a04 d7bd
00000090: c7b6 f33c a2c0 9d3c 2d2f f93c 1755 33bd
000000a0: 9cd8 d6bd 78b2 44bb f230 0ebe cf7f bbbd
000000b0: dfcd f6bd df6d b0bc 1d62 7cbb 2a16 fbbd
000000c0: c81e 3538 b5bb 84be d2f8 79be 1553 e9bd
000000d0: 5036 a5bd 5210 27be 5943 83bd 5a09 92be
000000e0: 818a 99be 8a1b 87be a17f cbbd 9a41 79bc
000000f0: 259a 54be 0a59 52be 6529 7abe 6999 ccbd
00000100: 4f2c 96be 58dc 82be 17c7 28be 2723 69bd
00000110: a0ff c0be 42a6 0ebe 13e2 99be a26a 1cbe
00000120: a391 bbbc 56cb 00bd b8b3 99bb b604 04bc
00000130: 547d 97be 92cc cabe 5eba 4abe 06f3 5ebe
00000140: 2cee 96be 4b46 003e 0145 d1bd e8da 87be
00000150: 87ba c9bd 2f59 17bc 25af bfbd 8a0c be3d
00000160: d4d6 7cbd 513c 173c e6f1 05bc b3b3 42be
00000170: 4d6b 36be a7f7 d5bd 3262 c1bd a1f6 79bb
00000180: ee1c 2440 2d88 3740 39f2 62c1 87ee f5bc
00000190: 099b 0bbe 4f48 d93b cb59 85bf c04b 9dbf
000001a0: b9e1 3941 ff76 bbbb d0f3 7abd ad84 b3bd
000001b0: f463 79be 637f 52bf f729 33be df1c 6bbd
000001c0: e033 e2bb ed54 313d fb6b 82bf ea39 48bf
000001d0: 702a 61be 2413 abbd 3b87 e0bd 68c7 5b3d
000001e0: 3d20 923d a3b2 9ebe a365 c33d 1b17 21bf
000001f0: 88dc 6abf fcae 0bbf 068e 8ebd 4ae5 b1bd
00000200: c168 79bd d81a 3abf e1f7 53bf bbcc 27bf
00000210: d0ee 273d 2428 dbbd 132e dd3c e87e f73d
00000220: 64f5 1f3d 6b4b 35bd a5f0 cc3c b766 b1bd
00000230: 429c 67bd cbe4 adbe 15a8 7cbe 4254 68bb
00000240: 9d50 6140 a675 5740 99d5 2e40 1f7f fab9
00000250: 12a2 663e f4c0 27c0 255c b6bf 127a 01c0
00000260: 1876 6ebf f1cf 39bd 3bb7 183e d44a a4bf
00000270: 58a9 ccbf 7386 96bf 031e 19bb 35f8 ea3c
00000280: c2e0 283e 74dc 2ebf e5a3 bcbf 22a6 c3bf
00000290: 394c 2abe bff1 333c 33ab 6ebd aaee 29c0
000002a0: 409d cebc 7ae8 8c3d 79a7 d43d 88e2 a5bf
000002b0: 07e6 d9bf c183 41be f2c6 ee3d 70cf e43d
000002c0: 12f5 5a3f d5a8 f6bf 47e9 dbbf 48a0 c93e
000002d0: f875 9f3d b2f7 5fbc 6e91 f0bd fe14 25be
000002e0: c8ab f33d eaf6 1fbd 43af a0bf 2d12 89bf
000002f0: 35f7 033d bf5e 69be ed76 01bd 4b88 9bbd
00000300: a1a9 6140 f9ac 4640 fbe3 7cc1 b41a bbbf
00000310: 0a7b 8fbe 3755 f93d 611e 0ac0 92b6 6fbf
00000320: 4133 3341 6f85 063f 43d8 fdbd ec31 f5bd
00000330: 4483 8fbf bd90 a5bf c8c2 e8be e5b1 ce3e
00000340: 3d41 2e3d 1be1 4bbe 751e 66bf 8e4b 99bf
00000350: 6b62 64bf 8f39 05bd 0ae5 aabd fe8c e63c
00000360: 0cb3 0dbe c116 e83d 729b 0abe 749d 96be
00000370: f556 86bf c0ea cbbf 7dbe 663e dbd4 b0be
00000380: 5f00 11be 6d89 16bf 9534 18bf fb0f b3bf
00000390: a892 69be 6c0a 1a3d d66a d73c b8b1 dbbd
000003a0: 2833 9ebd e8de 9ebd 85d5 773d b6ef 313f
000003b0: a819 acbf a232 80be c0e6 9abc 5816 6dbd
000003c0: 3066 4b40 f6df 2340 dbd8 6ec1 df37 3ebd
000003d0: dab4 4abe 2e09 a83c 8a94 29be 1da8 9dbf
000003e0: d447 3541 6cc7 d93d 5b98 8ebe 64ef 89bd
000003f0: fa9d bbbf 5c5d 9fbf bbe5 5ebf 3f28 63bd
0.06097063 -0.18128546 0.011455702 -0.052730393 -0.15377675 -0.039133385 -0.14626375 -0.002143065
-0.028344939 -0.04695833 0.05111404 0.04310627 -0.018917881 0.10111877 0.050602093 -0.16965044
0.03211246 -0.116901524 0.023778269 0.13061593 -0.12241308 -0.043039918 -0.12185272 -0.0004984941
-0.02297468 0.09345172 -0.019981196 -0.039531585 -0.22275423 -0.0746202 -0.13727616 -0.17554283
-0.007976388 -0.09671411 -0.0060998965 -0.10498889 0.029750241 0.019256894 0.030418003 -0.04378232
-0.10490534 -0.0030013602 -0.13885859 -0.09155237 -0.120509855 -0.021536766 -0.0038510629 -0.12260087
4.318243e-05 -0.2592446 -0.24411324 -0.113928 -0.08067 -0.1631482 -0.0640933 -0.2852276
-0.29988483 -0.26388198 -0.09936453 -0.015213395 -0.20761926 -0.20541778 -0.24429853 -0.09990198
-0.2933068 -0.25558734 -0.16482197 -0.05691829 -0.37695026 -0.1393061 -0.30055293 -0.15275052
-0.022896593 -0.031443916 -0.0046906136 -0.008057764 -0.29587805 -0.396092 -0.19797656 -0.21772394
-0.29478586 0.12526815 -0.102182396 -0.265342 -0.098500304 -0.009237572 -0.09359578 0.092797354
-0.061728314 0.009230689 -0.008175349 -0.19013862 -0.1781437 -0.104476266 -0.094425574 -0.0038141387
2.5642657 2.8676865 -14.184136 -0.030020965 -0.1363336 0.0066309343 -1.0418028 -1.2288742
11.617608 -0.0057209725 -0.061267674 -0.0876554 -0.24354535 -0.82225627 -0.17496477 -0.05740058
-0.0069031566 0.043293882 -1.0189203 -0.7821337 -0.21988845 -0.0835326 -0.10963293 0.053656965
0.07135055 -0.30995664 0.0954087 -0.6292588 -0.91742754 -0.5456388 -0.069606826 -0.086863115
-0.060890917 -0.7269721 -0.8280011 -0.6554677 0.040999234 -0.107010156 0.026999509 0.12084752
0.039052382 -0.044261377 0.025017092 -0.086621694 -0.056545503 -0.33963618 -0.24673493 -0.0035450612
3.5205452 3.3665557 2.731787 -0.00047778428 0.22522762 -2.621152 -1.424687 -2.0230756
-0.93148947 -0.045364324 0.14913647 -1.2835336 -1.598918 -1.1759781 -0.0023363836 0.028682807
0.16491988 -0.68305135 -1.4737517 -1.5285075 -0.16630639 0.01098293 -0.058268737 -2.655192
-0.025221467 0.06880279 0.103835054 -1.2959757 -1.7023324 -0.18897916 0.116590396 0.11172378
0.855302 -1.9270273 -1.7180566 0.39380097 0.07786173 -0.013669895 -0.117464885 -0.16121289
0.11897999 -0.039053835 -1.2553486 -1.0708672 0.032218177 -0.22790049 -0.031607557 -0.07594355
3.5259783 3.1043074 -15.805659 -1.4617524 -0.2802356 0.121744566 -2.1581042 -0.93637955
11.200013 0.52547354 -0.12394764 -0.119724125 -1.1211934 -1.2934796 -0.45461106 0.40370098
0.042542685 -0.1991009 -0.89890224 -1.1976182 -0.89212674 -0.032525595 -0.08344467 0.028143402
-0.13837832 0.11332465 -0.1353586 -0.29417002 -1.0495287 -1.5931015 0.22533603 -0.34537396
-0.14160298 -0.58803445 -0.59455234 -1.3989252 -0.22809851 0.037607595 0.02629606 -0.107272565
-0.07724601 -0.0775736 0.060506362 0.69506395 -1.344533 -0.2503863 -0.018908858 -0.057882637
3.178112 2.5605445 -14.927943 -0.04644 -0.19795552 0.02051219 -0.1656057 -1.2316929
11.330036 0.1063374 -0.27850613 -0.06735113 -1.4657586 -1.2450366 -0.8706929 -0.055458304

conv2.bias f4 [32]
00000000: 3369 e7bd bd04 abbe 4f33 1740 5a64 053f
00000010: 9698 2340 b9f7 3340 c4d2 52bd 1d32 b53f
00000020: d05f d13f edcf 9640 f6b8 19bd 92ee b73f
00000030: 1b37 3741 5bde 5e40 44b6 2540 68f4 c53f
00000040: 0a66 9bbe 5116 e140 0b3e 8b40 9f98 0d40
00000050: 71c1 303f ca27 1d40 0233 c240 7c0b 5d40
00000060: ba39 7340 2a4f 8240 4267 3f40 ab0e 7340
00000070: 1163 d13d 8362 5640 de01 ea3f 3bc2 883f
-0.11299362 -0.33402053 2.3625066 0.5210625 2.556188 2.8119948 -0.051470533 1.4155918
1.6357365 4.7128816 -0.037529908 1.4369681 11.4509535 3.4823215 2.5892496 1.5465212
-0.30351287 7.033974 4.3513236 2.2124403 0.6904517 2.4555535 6.0687265 3.453826
3.8003983 4.0721636 2.9906774 3.7977703 0.102239735 3.3497627 1.828182 1.0684274

fc1.weight f4 [64, 256]
00000000: ef49 48bd c2e3 793d 9d9f 2ebd 6dd4 e5bb
00000010: 4ae3 5cbc 6e34 d43c 56fd 2c3c b954 673d
00000020: 64a2 a63c df7f 023d ecb9 b23c 2c22 4f3d
00000030: aa8c 31bd 48c8 e23c 3e14 56bd d8fc 02bc
00000040: 8b58 9abd 696c 64bd b794 78be cf03 39be
00000050: 7a9d c3be 9a45 1ebd 4af8 a63e 68d8 3d3e
00000060: a73f 973c 6011 1ebd 4232 20be 89b8 9fbd
00000070: 5f9b 3bbe 05c9 37be 6824 61bd c288 203e
00000080: 3031 393b 77f5 96bd d61f 7bbe f769 b1bd
00000090: 10e2 11be 7892 dbbd 8c60 d3bc 940f 20be
000000a0: eede 2c3c f709 3f3c b857 37be 3e82 6bbd
000000b0: 9b79 c5be 1162 5cbe 16d4 903b dbae f43e
000000c0: 6bde 783b 2627 1d3d a0a9 033c f864 cfbc
000000d0: dc0b a9bc 1800 d5bc 9c76 eb3c 0663 a63c
000000e0: 3a43 813c b467 2dbd 6325 6abe a1f0 54be
000000f0: f138 cfbe 74f7 933d 4c47 bb3e c848 0cbe
00000100: c35e 71bd f84e 0c3d a475 34be 3e0c 0bbe
00000110: 4e7d 3fbe 14bb a5bc 80ed 4ebd 4042 84bd
00000120: 701b 333d 6dc7 16bd 00f2 bebd 4c10 4bbe
00000130: ef9f 25be 4f35 cebe 47d0 86be a32d 533e
00000140: 2097 79bc 5bcb 79bd a82f 54bc 04be 9d3c
00000150: 80e2 89bc 14e6 bdbc 78d7 833c 00a4 faba
00000160: aac4 57bd 83cf 053c d4d0 13be 93c8 89bd
00000170: f5e3 f7bc ad52 043e 16a7 a2bd 387b a1be
00000180: 5ceb 84bc 5ba8 cc3c a37e 23bd dbee d43b
00000190: 73c8 aebd ade6 a6bd 0d33 97bc c040 ed3c
000001a0: 7092 28bd f67c 61bd f262 37be 43c6 68be
000001b0: d0f5 dbbe 042d 63be fddd 083f dc20 663e
000001c0: a881 e4bc 66db 4dbc dc5d 5fbe 6d42 16be
000001d0: f05d 20be b305 89bd 9c6f 353e 114c 41be
000001e0: c7aa ed3b 3abd 91bc 5d0b 20be 4542 febd
000001f0: 8750 16be 6a79 13bd 34b8 f0bc fc31 19bc
00000200: 1e1a 62bd 2cc5 17bd 8cc2 92bc 607f 00bc
00000210: 8434 203d 5434 b73c da19 1ebd 1082 b53c
00000220: 8423 be3c 9c41 20bd c6c1 c1ba fb0d 0fbe
00000230: 93d5 d6bd 8b55 a2bd cc29 65bd 18ff dc3e
00000240: 0d0a 66bc a7cb dfba aa2e 8bbd f361 5dbd
00000250: 75fa 6bbd 8866 03be a04a b6bd 989f b0bd
00000260: 51ec 783c daf3 8ebc e196 30be 9b41 11be
00000270: e4d0 c9be 25dd a7bd ed54 b43e aaf1 e0bd
00000280: 244a adbc a6a0 cf3b 53fb 00be 52dd 81bd
00000290: e0c3 7c3d 26e3 10be e51f 1cbe 8fe1 96be
000002a0: 0689 22bd bba0 b63b f192 3bbe 6c0b 2fbe
000002b0: 12e4 28be df30 95bd e586 00be 615a ebbd
000002c0: 8219 843d ef23 e8bb afc1 bfbd 5f38 25be
000002d0: 5361 dabe 4606 9cbe ea67 c43e c5e6 c6bd
000002e0: d1da b5bd 57b4 32be 2944 babd 5e1b 4cbe
000002f0: 41e7 d5bd 5e37 44be a5c3 00be 87ee 03be
00000300: 2b04 d53c 79e3 553d 6a61 153d 9e03 103d
00000310: 8803 263c 3450 70bd 40d7 a0bc 1013 173d
00000320: 6d43 32bd 78c8 95bc d81e 6dbc b08a f13c
00000330: d03d 82bc 5026 c8bb b22b 6cbd 42e4 6ebd
00000340: a8da 5bbc 893c c2bc 77d1 48be 913d b8bd
00000350: 5a52 8bbe 01a5 17be c4c9 38bd eb31 bbbd
00000360: 3e7d fabc 6d0a edbc a1ff ecbd 7f1a 22be
00000370: 0d1b 66be 8b2a 40be 50ce e4bd 287a f5bd
00000380: 64ca 01be ed4c 05be a4f2 b3bd 577a e1bd
00000390: 5128 91bd 354f 9bbd a016 1fbe 4bde 7cbe
000003a0: c9b9 2dbc d285 c33c c9b6 57be 4d77 22be
000003b0: 78a6 ebbe a26a 99be ab56 d93e 9ea2 a53e
000003c0: e1ff 3e3d 0139 0dbe bd4f 3abe 7037 13be
000003d0: e015 55be bda6 3ebe 4eba d3bd f725 3dbe
000003e0: cf69 eabc 541c f23c 81c8 713d b88e 2e3c
000003f0: 7f28 c8b9 4bbc 8c3b ded4 fbbb 2e89 1b3d
-0.048898634 0.061008222 -0.042632688 -0.0070138485 -0.013481924 0.025903907 0.010558447 0.056477282
0.020341106 0.03186023 0.02181717 0.0505697 -0.04334704 0.027683392 -0.0522654 -0.007994853
-0.075364195 -0.05576745 -0.2427548 -0.18067859 -0.38206083 -0.038640596 0.32611305 0.18539584
0.018462969 -0.03859079 -0.15644172 -0.07798869 -0.18320988 -0.17947777 -0.05496636 0.15677169
0.0028258078 -0.073710375 -0.24523863 -0.08662789 -0.14246392 -0.10721296 -0.025802873 -0.15630943
0.010551197 0.011660091 -0.17904556 -0.057497256 -0.3856934 -0.21521784 0.004419814 0.47789654
0.0037974368 0.038367413 0.008036047 -0.0253167 -0.020635538 -0.026001021 0.02874308 0.02031089
0.015779126 -0.042335227 -0.22865824 -0.20794918 -0.4047313 0.07224932 0.36577833 -0.13699639
-0.058928262 0.034254998 -0.17623001 -0.13578889 -0.18700144 -0.020230807 -0.050519466 -0.06457949
0.04372734 -0.03681128 -0.093235016 -0.19830436 -0.16174291 -0.40275046 -0.26330778 0.20622878
-0.015233785 -0.06098495 -0.012950815 0.019255646 -0.016831636 -0.023180999 0.016093954 -0.0019122362
-0.052677788 0.00816715 -0.1443513 -0.067277096 -0.030260066 0.12922163 -0.07942025 -0.3153932
-0.01622551 0.024982622 -0.039915692 0.0064982004 -0.085343264 -0.08149467 -0.01845696 0.02896154
-0.04115528 -0.055050813 -0.17908838 -0.22731881 -0.42960978 -0.22185141 0.5346373 0.22473472
-0.027893856 -0.012564516 -0.21813148 -0.14673777 -0.15660834 -0.0669054 0.17718357 -0.18876673
0.0072530243 -0.017790426 -0.15629335 -0.12414984 -0.14679156 -0.03600446 -0.02938471 -0.009350296
-0.05520069 -0.037053272 -0.017915033 -0.007842869 0.039112583 0.02236382 -0.038598873 0.022156745
0.023210295 -0.03912507 -0.001478248 -0.13970177 -0.10489955 -0.07926472 -0.055948064 0.4316337
-0.014040482 -0.0017074243 -0.0679601 -0.05404849 -0.0576119 -0.12832081 -0.08900952 -0.0862419
0.015193061 -0.017450262 -0.17245056 -0.14185183 -0.39417183 -0.08196477 0.35221043 -0.10983594
-0.021153517 0.0063362895 -0.12595873 -0.063410416 0.06171024 -0.1414915 -0.15246542 -0.29468963
-0.039681457 0.00557336 -0.18317772 -0.17094201 -0.16493252 -0.07284712 -0.12551458 -0.11491848
0.06450178 -0.0070843617 -0.09363114 -0.16134785 -0.42652377 -0.30473536 0.3836053 -0.097119845
-0.088796265 -0.17451607 -0.09095032 -0.19932315 -0.10444499 -0.19161746 -0.12574632 -0.1288396
0.026002964 0.052218888 0.036469854 0.0351597 0.010132678 -0.058670238 -0.01963389 0.036883414
-0.043521333 -0.018284068 -0.014472686 0.029485077 -0.015898615 -0.006108083 -0.05765886 -0.058323152
-0.013418831 -0.023710506 -0.19611154 -0.08996118 -0.27211267 -0.14809038 -0.045114294 -0.091403805
-0.030577298 -0.028935635 -0.11572195 -0.1583042 -0.22471257 -0.18766229 -0.111721635 -0.1198619
-0.12674862 -0.13017626 -0.087865144 -0.110096626 -0.07087768 -0.07583467 -0.15535975 -0.24694173
-0.010603377 0.023867521 -0.21065821 -0.15865822 -0.46025443 -0.29964167 0.42448935 0.3235063
0.046630744 -0.13791277 -0.1819448 -0.14376616 -0.20809126 -0.18618293 -0.10338269 -0.18471514
-0.028614907 0.029554524 0.059029106 0.010654144 -0.00038177145 0.004294907 -0.007685288 0.03797262

fc1.bias f4 [64]
00000000: 92fa d0bd a95d 4fbf 8dac 02be 8d72 88bf
00000010: 931e 08be 2f76 00bf a62e 16be c53e 24bf
00000020: f320 20bf 0c93 f7bd 5aae 5f3d 84d7 4abf
00000030: 890c f3bd 13af 7ebd a00e 41be ecbe 2fbf
00000040: 12bf b8bf 5537 97bd 2555 4dbf 1e36 ccbd
00000050: c222 34bd d3c9 26be 166b 4dbc af7d 6dbe
00000060: b939 76bf db21 85bd f377 bdbe 82b8 ccbd
00000070: 6fac 1abf 90ad 38be 5a45 4dbd 174e 21bd
00000080: 34b9 cabd 2740 e4bd 8ab9 0cbf 4f89 85bf
00000090: 117a f8be a909 43be 2f38 e6bc bd03 30bd
000000a0: f2f0 93bf 3758 eab9 a4e3 04c0 3896 86bd
000000b0: 6ac1 02bf 0eb5 10bf ff35 abbe a882 95bd
000000c0: e147 c5be 2c3f 9abf 9736 debe 84cf c2be
000000d0: 7994 f9bd c39d e6bd fb70 3abe b4b8 76be
000000e0: 2e51 a1bf 80b1 abbf cc7f d5bc 67ab a6bd
000000f0: e909 5bbd 612e 10bf 3294 49bf 0b74 83be
-0.102040425 -0.8100229 -0.12761135 -1.0659958 -0.13292913 -0.50180334 -0.14666232 -0.6415828
-0.62550277 -0.12088594 0.054609634 -0.792351 -0.11867625 -0.062178683 -0.18853235 -0.686507
-1.443331 -0.073836006 -0.80208045 -0.099712595 -0.04397846 -0.16287927 -0.012537738 -0.23192476
-0.9618183 -0.06500598 -0.37005576 -0.099961296 -0.6041936 -0.18034959 -0.050114967 -0.039381113
-0.09898606 -0.111450486 -0.5497061 -1.0432528 -0.4853063 -0.19046654 -0.028102962 -0.042972315
-1.1557906 -0.00044697683 -2.076394 -0.06571621 -0.51076376 -0.5652627 -0.33439633 -0.07300311
-0.38531402 -1.2050529 -0.43401024 -0.38048947 -0.12186522 -0.112605594 -0.18207161 -0.24093896
-1.2602899 -1.3413544 -0.026061915 -0.08138161 -0.053476248 -0.5632077 -0.78741753 -0.2567447

fc2.weight f4 [2, 64]
00000000: 9da1 4cbd 5ffb b5bc 9e61 893d 429b c83d
00000010: c5b9 fb3c 5b29 593e 7f34 ab3d 1b2f 5f3e
00000020: 8205 cf3d c86b 68bc 5c35 5f3d e85c c23c
00000030: eaed 853d 5403 80be 4238 42bd 6e51 243d
00000040: d788 a5bd 8696 11bc 94c5 0a3e 7226 793d
00000050: 1138 85be 5727 b1bd 5cad 8bbd 85d7 ce3d
00000060: 18fd 62be 50b3 1cbe a87c 9f3d 8bbd 583d
00000070: b2dc 1a3d b9a2 9f39 f8d3 84bd 5260 ae3c
00000080: 4b26 af3d 07a7 843c e7b5 b9bd f52a d7bd
00000090: fb1f 0e3d 4be3 ad3c 2182 303d e784 14bd
000000a0: 3668 59bc d50e 6b3c 97f3 483c 6052 20bc
000000b0: 6c1c 23bc 6c72 63be eef2 35be d44c d8bd
000000c0: 0515 e9bd 45cc 073d e4ae 57be 6cc4 4cbc
000000d0: aa83 b0bc 7909 4f3c 6877 803d 2332 243d
000000e0: d9f0 bb3c a502 d0bc f1f6 923d 8b88 c6bc
000000f0: 4902 5a3d 0350 003e 3dd5 823d d79d 073c
00000100: f7ad 153d a7fa 36be b693 4e3d bd21 d5bc
00000110: fef9 c93c c8be b13c dcac c83c 6f72 4ebd
00000120: 7869 0cbe 16f5 e53c 6bf9 503d 3eb0 313d
00000130: 5447 883d 75e1 a23e 0246 89bd b25f 58be
00000140: 59d9 c9bd e445 dc3c 3cd1 cd3c 46ad 913d
00000150: 41c6 2a3e a4fb 51bd 9e50 99bd 3d65 cdbd
00000160: ad16 ff3d f4f0 c23d 251c c9bd 5739 dc3d
00000170: 0cdc 1c3d 0e99 6b3d f64b 0abc 06da e0bc
00000180: 4d1d d53c f059 04bd 32ab b9bd 9097 31bd
00000190: e59c 9cbd c644 c83c af5a 873d 7019 1bbd
000001a0: 80cc 9c3c d258 aa3c 434e 9f3c e15f b13c
000001b0: 6b41 7e3d 5e53 693e 2ff5 e03d f209 73bd
000001c0: e7a5 0d3d 61a3 033d 94f0 0e3e 25e5 25bd
000001d0: 51b0 b33c 8b87 503d 4bfd 3abd a038 ecbd
000001e0: c63f cc3c d008 85bc 58f6 843d 72da e03c
000001f0: 49ee c8bd 79db 03be cba6 853d 1d6e f3bd
-0.049958814 -0.02221459 0.06708072 0.09795238 0.03072823 0.21207182 0.08359622 0.21795313
0.101084724 -0.014185853 0.054494247 0.023725942 0.06539519 -0.2500254 -0.047416933 0.04011672
-0.08082741 -0.008885985 0.13551933 0.06082768 -0.26019338 -0.086500816 -0.06820175 0.10099701
-0.2216686 -0.15302777 0.07787448 0.052915137 0.037808128 0.0003044808 -0.06485742 0.021286163
0.08552226 0.016192926 -0.09067898 -0.1050624 0.034698468 0.021226546 0.04309285 -0.036259558
-0.013269475 0.014346798 0.012265108 -0.009785265 -0.009955507 -0.22211617 -0.17768452 -0.10561529
-0.11380962 0.03315379 -0.21062809 -0.0124980025 -0.021547157 0.012636536 0.06272775 0.040086877
0.022941994 -0.025391886 0.071760066 -0.02423503 0.053224836 0.12530522 0.06388328 0.008277378
0.03654286 -0.17869054 0.050433837 -0.026017064 0.024655338 0.021697417 0.024496488 -0.0504021
-0.13712108 0.028070968 0.051019114 0.04338097 0.0665423 0.31812635 -0.06702806 -0.21130255
-0.09855909 0.026888795 0.025124185 0.071131274 0.1667719 -0.051265374 -0.0748608 -0.10029075
0.12455497 0.095186144 -0.09819821 0.10753124 0.03829579 0.05751901 -0.008440962 -0.027447712
0.026014948 -0.032312334 -0.09065856 -0.043357432 -0.07647113 0.024446856 0.066090934 -0.037866056
0.019140482 0.020794306 0.019446498 0.021652164 0.062074106 0.22785708 0.10984265 -0.059335656
0.034582045 0.032138232 0.13958961 -0.040501732 0.02193466 0.050910514 -0.045651715 -0.11534238
0.024932753 -0.016239554 0.06492299 0.027447913 -0.09811074 -0.12876691 0.06525954 -0.11886237

fc2.bias f4 [2]
00000000: 23ef 2b3f bae8 f5be
0.6716177 -0.4802912
