model1.pth (torch, 75496 bytes, 8 tensors)

conv1.weight f4 [16, 1, 3]
0	0x3f0db995	0.553613
1	0xbee9eadf	-0.45687005
2	0x3f32dfa2	0.69872487
3	0x3d89c24a	0.06726511
4	0xc04626b7	-3.096113
5	0xbf02bef0	-0.510726
6	0x3e9b41e1	0.303237
7	0x3e01a598	0.12660825
8	0xbfc79d78	-1.5594931
9	0xbef53cc7	-0.47897932
10	0xbdc2cffc	-0.09512326
11	0xbd6e094d	-0.05811434
12	0x3e051891	0.12997653
13	0xbf93e8ab	-1.155538
14	0x3f41a9ee	0.7564992
15	0xbf5f85ba	-0.87313426
16	0xbf3bcc56	-0.73358667
17	0x3ec1bc12	0.378388
18	0xbf5f1ee2	-0.871565
19	0xbf5ba00f	-0.85791105
20	0xbf078170	-0.5293188
21	0x3dd7f325	0.10544423
22	0x3ec2bfdc	0.38037002
23	0xbe592a71	-0.21207596
24	0xbdd92cc4	-0.106042415
25	0xbf339da1	-0.701624
26	0x3edda5de	0.4329061
27	0x3e5cf246	0.21576795
28	0xbe07dd85	-0.13268097
29	0xbc23299e	-0.009958653
30	0xbec540cd	-0.38526002
31	0x3eb184ba	0.34671575
32	0xbe57efbb	-0.21087544
33	0xbecd3d2d	-0.40085736
34	0x3f0e8404	0.5567019
35	0x3f32a63e	0.69784915
36	0x3ef40682	0.47661215
37	0x3e7a9225	0.24469812
38	0x3f29e75d	0.6636866
39	0x3e40610e	0.18787023
40	0xbf642ef0	-0.8913412
41	0x3e48058e	0.19533369
42	0x3c8e6b3d	0.01738512
43	0x3c6cb8a4	0.014448319
44	0xbd990ac3	-0.07472756
45	0x3f05082d	0.519656
46	0x3e854027	0.26025507
47	0xbc01db71	-0.007925854

conv1.bias f4 [16]
0	0xbf9bd467	-1.2174195
1	0x4006e5f2	2.1077847
2	0xc0d59e8f	-6.6756053
3	0xbecc40f4	-0.39893305
4	0xbdefe8e4	-0.11714342
5	0x3edc17fd	0.42987052
6	0x3eeebde3	0.46629247
7	0xbed256a0	-0.41081715
8	0x3efc52c9	0.4928191
9	0xbce77c53	-0.028257525
10	0xbcd556c9	-0.026042359
11	0xbf37b851	-0.7176562
12	0xc09168fd	-4.544066
13	0xbed01b9e	-0.4064607
14	0xbd9b8591	-0.07593835
15	0x4011ca51	2.2779734

conv2.weight f4 [32, 16, 3]
0	0xbdf5bc88	-0.1199885
1	0xbde186fd	-0.11012075
2	0x3de190ec	0.1101397
3	0xbe07a12e	-0.13245079
4	0xbe921976	-0.2853505
5	0xbe8ef7b5	-0.2792336
6	0xbdab5021	-0.08364893
7	0xbdf6bb0a	-0.120473936
8	0xbd864b79	-0.06557364
9	0xbd585342	-0.052813776
10	0xbdff6ba2	-0.12471701
11	0xbaaf7c33	-0.0013388455
12	0xbb23589b	-0.002492464
13	0x3dbfeb03	0.09370997
14	0xbdf6d09a	-0.12051506
15	0x3d84e4d1	0.06488956
16	0xbe41d2c7	-0.18928061
17	0xbe1f9569	-0.15584339
18	0xbd263c0f	-0.04058462
19	0xbe759df8	-0.23986042
20	0xbe81489d	-0.25250712
21	0xbe458029	-0.1928717
22	0xbd8ee422	-0.06977107
23	0x3dffab55	0.12483851
24	0xbda4e44d	-0.080513574
25	0xbda77b77	-0.08177846
26	0xbda7e261	-0.08197475
27	0xbd306a6e	-0.04307025
28	0x3e098f9f	0.13433693
29	0xbdc2d983	-0.09514143
30	0xbd1506f3	-0.03638358
31	0xbc4b7c57	-0.012419782
32	0xbe985976	-0.29755753
33	0x3da8ae5a	0.0823638
34	0x3d213adc	0.039362773
35	0xbe7fc59b	-0.24977724
36	0xbe24012a	-0.16016069
37	0xbdfd1729	-0.12357933
38	0xbddef0f5	-0.10885803
39	0xbdac4a3e	-0.08412598
40	0xbdcc45a2	-0.09974219
41	0xbd69b11d	-0.057053674
42	0x3d8733bf	0.06601667
43	0x3e008c19	0.12553443
44	0xbd7950c2	-0.060868032
45	0x3d513d95	0.05108412
46	0xbddb89b7	-0.107196264
47	0xbe1a98de	-0.15097377
48	0x3c969833	0.018383121
49	0xbd9e1e5e	-0.07720636
50	0x3d4bd24c	0.0497611
51	0xbec2b2fa	-0.38027173
52	0xbde990c4	-0.11404565
53	0xbe14c46a	-0.14528051
54	0x3c7aa827	0.01529888
55	0xbe06bfbc	-0.13159078
56	0x3dfd53ea	0.12369521
57	0xbd177cb0	-0.036984146
58	0x3d97973d	0.07401893
59	0x3e0fe5b0	0.14052463
60	0xbdc1c3bf	-0.09461164
61	0xbd9ba142	-0.07599117
62	0xbe2159cc	-0.15756911
63	0xbe76e247	-0.24109755
64	0xbe94d8d9	-0.29071692
65	0x3fbcd86c	1.4753547
66	0xbe0b76f7	-0.136196
67	0xbe6093ec	-0.21931428
68	0x3fb6be94	1.427691
69	0xbe22d002	-0.15899661
70	0xbdde1200	-0.10843277
71	0xbd890b99	-0.06691665
72	0xbe8bed33	-0.27329406
73	0xbe9f3dad	-0.31101742
74	0x3fcb747e	1.5894926
75	0xbe03f639	-0.12886895
76	0xbd169708	-0.03676513
77	0x3d5f874e	0.054572396
78	0x3c5f9384	0.01364601
79	0xbd5a8040	-0.053344965
80	0xbea4ed11	-0.32212117
81	0xbd89d74b	-0.06730517
82	0xbdc12a91	-0.09431947
83	0x3dfe2c93	0.124108456
84	0x3d07ca47	0.03315189
85	0xbcf35e35	-0.029708007
86	0xbdf923eb	-0.12165054
87	0x3c2b53e1	0.01045701
88	0x3d910cc4	0.07082513
89	0x3d9e5217	0.07730501
90	0xbdda91b0	-0.10672319
91	0xbda32cb3	-0.0796751
92	0xbf1358c1	-0.575573
93	0xbd9c2a2f	-0.076252334
94	0xbe251d30	-0.16124415
95	0xbede6b4b	-0.43441233
96	0xbcc0f6d6	-0.0235552
97	0x3d71a36a	0.058993734
98	0x3d444d25	0.047925133
99	0x4007f506	2.12433
100	0xbdbf7681	-0.09348775
101	0xc00b39cb	-2.1754024
102	0xbecc4a00	-0.39900208
103	0xbb45ed56	-0.0030201278
104	0xbd3958cb	-0.045250695
105	0xbd293759	-0.04131255
106	0xbce9b7f6	-0.028530102
107	0xbd25c24a	-0.04046849
108	0x3d2edf00	0.042693138
109	0xbda14cdb	-0.07875987
110	0x3c464840	0.012102187
111	0x3df349da	0.118793204
112	0xbe08e20e	-0.13367483
113	0xbe53ce47	-0.20684157
114	0x3d2a052c	0.04150884
115	0xbe7da0e9	-0.24768414
116	0xbed4d69b	-0.4156998
117	0xbe486551	-0.19569899
118	0xbe9f1618	-0.31071544
119	0xbe0a5b75	-0.1351145
120	0x3c123a6f	0.0089250645
121	0xbe450b34	-0.19242555
122	0xbf752224	-0.9575522
123	0xbe06fffc	-0.13183588
124	0x3d05188c	0.032494113
125	0xbd7eff5e	-0.062255256
126	0xbdda963d	-0.10673187
127	0xbe6bdd8a	-0.23033729
128	0xbebb9c29	-0.36642578
129	0xbde5ded7	-0.11224144
130	0x3d38eeb8	0.045149535
131	0xbe519552	-0.20467117
132	0xbd5b5945	-0.05355193
133	0x3d9dc104	0.077028304
134	0xbcf5a199	-0.029984282
135	0xbe00dded	-0.12584658
136	0x3d3ba48b	0.045811217
137	0x3d750f0f	0.059828814
138	0xbd80d626	-0.062908456
139	0xbe348f05	-0.17632683
140	0xbe551e8c	-0.20812434
141	0xbe779069	-0.24176182
142	0xbeb7fc15	-0.3593451
143	0xbe13d162	-0.14435342
144	0xbd68fb57	-0.05688032
145	0xbd272d42	-0.040814646
146	0x3d83dc0b	0.06438454
147	0xbe68b658	-0.22725809
148	0xbeb70874	-0.35748637
149	0xc02c4c5b	-2.6921604
150	0x3d99d175	0.07510654
151	0x3de3c882	0.11122228
152	0x3e09ee74	0.13469869
153	0x3db32ab0	0.08748376
154	0x3def09f1	0.11671818
155	0xbdc28d64	-0.09499624
156	0xbae96eba	-0.0017809488
157	0xbcf92aaa	-0.030415852
158	0xbe157e3e	-0.14598939
159	0xbe0ba8e0	-0.1363864
160	0xbe608348	-0.2192508
161	0x3e8a1793	0.2697111
162	0xbebe6c91	-0.37192205
163	0xbe18f879	-0.14938535
164	0xbf5518b0	-0.83240795
165	0xbe3918fd	-0.18075939
166	0xbe18bfa5	-0.14916857
167	0x3c70a399	0.014687442
168	0xbe43d81f	-0.19125412
169	0xbe9f6241	-0.3112965
170	0x4070c748	3.7621632
171	0xbdf006c6	-0.11720042
172	0xbdbce41e	-0.092231974
173	0xbe0328f0	-0.12808585
174	0xbe8f7be0	-0.28024197
175	0xbe7c1340	-0.24616718
176	0xbda07664	-0.07835081
177	0xbc357d34	-0.011077214
178	0xbd0ed155	-0.034867603
179	0x3dd00ced	0.101587154
180	0x3d7aa0c6	0.06118848
181	0x3d82e4f4	0.063913256
182	0xbe0aba22	-0.13547567
183	0x3c8891f1	0.016671153
184	0xbd27ab08	-0.040934592
185	0xbd8a7999	-0.06761474
186	0xbdf619e8	-0.1201666
187	0xbe518ba0	-0.20463419
188	0xbd6dfb4d	-0.058100987
189	0xbea15467	-0.31509706
190	0xbe3d7aa8	-0.18503821
191	0xbdc512bc	-0.09622714
192	0xbd2eb5d0	-0.04265386
193	0xbde5f34d	-0.112280466
194	0xc04e1ab4	-3.2203798
195	0xbeacb2a7	-0.3373005
196	0x3f236f52	0.63841736
197	0x3f2cf38b	0.6755912
198	0xbe76d96e	-0.2410638
199	0xbe28139b	-0.16413729
200	0xbe826d99	-0.2547424
201	0xbd99a788	-0.07502657
202	0x3e030eb2	0.12798575
203	0xbd6c08fe	-0.057625763
204	0xbe2ad008	-0.1668092
205	0xbdb3b37c	-0.08774468
206	0xbeb0d744	-0.34539235
207	0xbe06fe41	-0.13182928
208	0x3efb2d89	0.49058178
209	0x3f3cd705	0.73765594
210	0xbe8e49f3	-0.27790794
211	0x3ee05dd7	0.43821594
212	0x3f03bbc2	0.5145837
213	0xbe5a0367	-0.2129036
214	0xbe4a0c0a	-0.19731155
215	0x3d3e53f8	0.046466798
216	0xbe1c4222	-0.15259603
217	0xc08488e2	-4.1417093
218	0xc0074692	-2.1136823
219	0xbe9f6853	-0.3113428
220	0x3f2e5457	0.6809744
221	0xc02cdda5	-2.701028
222	0xbf0347df	-0.5128154
223	0xbe583a62	-0.21116021
224	0x3f091939	0.5355411
225	0x3e1654fe	0.1468086
226	0x3cb6819b	0.022278598
227	0xc04e3f66	-3.2226195
228	0xbdd65b94	-0.10466686
229	0xbe550330	-0.20801997
230	0xbe4f413c	-0.20239729
231	0xbbab915c	-0.005235834
232	0xbd395786	-0.045249484
233	0xbfa7e8da	-1.3117936
234	0xbe234f87	-0.15948306
235	0xbe5c8cbc	-0.21538061
236	0xbf1a44e4	-0.6026137
237	0xbe5b6681	-0.21425821
238	0xbe982177	-0.29713032
239	0x3d99790e	0.074937925
240	0xbcaed747	-0.021342887
241	0xbe06206d	-0.13098307
242	0x3c557500	0.013028383
243	0xbd3c0de1	-0.045911673
244	0xbb169250	-0.0022975393
245	0xbd848bd8	-0.064719856
246	0x3dd2ae55	0.102871574
247	0x3e093413	0.13398771
248	0x3dbcf385	0.09226135
249	0xbe00d092	-0.12579563
250	0xbe021b74	-0.12705785
251	0xbd42ff7d	-0.047606934
252	0xbcbf279c	-0.023334317
253	0xbd9542d8	-0.0728814
254	0x3ce3c9e0	0.027806222
255	0x3d234af1	0.03986639

conv2.bias f4 [32]
0	0xbe27487d	-0.16336246
1	0x3d1e0fdf	0.038589355
2	0x3fe3e16a	1.7803166
3	0x403a0ded	2.9071
4	0x3f370651	0.71494013
5	0xbd9ee9b1	-0.07759417
6	0xbddaf844	-0.10691884
7	0x3bcc3619	0.006232035
8	0xbe2ea9a8	-0.17056906
9	0x402d3013	2.7060592
10	0x400a7a7d	2.163726
11	0xbe50f57a	-0.20406142
12	0x3f871b0d	1.055513
13	0xbe11585a	-0.1419386
14	0x3e9c165d	0.30485812
15	0x3dd525eb	0.10407623
16	0xbd861446	-0.065468356
17	0xbe1b2607	-0.15151225
18	0xbe8cd2e6	-0.27504653
19	0x40854156	4.1642256
20	0xbd72bd20	-0.059262395
21	0x4018c4bc	2.3870077
22	0x4059114a	3.3916802
23	0x3d5d8e9c	0.05409108
24	0xbe19db5a	-0.15025082
25	0xbe14e646	-0.14540967
26	0x3db79ada	0.089650825
27	0x3ebccb89	0.36874035
28	0x3e7f090a	0.24905792
29	0xbdaefa5e	-0.085438475
30	0x3bd684c0	0.0065465868
31	0x40121c16	2.2829642

fc1.weight f4 [64, 256]
0	0x3d0917a7	0.033469822
1	0x3ca6cd07	0.020361437
2	0x3d12b8ab	0.035820644
3	0xbd0febaa	-0.035136856
4	0x3d4af630	0.04955119
5	0xbd7479ac	-0.059686348
6	0x3d262c2a	0.040569462
7	0xbd9cc6d6	-0.076551124
8	0xbccac720	-0.024753153
9	0x3b3c45cc	0.0028728126
10	0xbe6cba39	-0.23117913
11	0xbe90acf0	-0.2825694
12	0x3e33ce67	0.17559205
13	0xbe74b925	-0.23898752
14	0xbe2acbd4	-0.16679317
15	0xbf595078	-0.8488841
16	0xbd05a27c	-0.03262566
17	0x3bca61dc	0.0061762165
18	0xbef8299c	-0.48469245
19	0xbef6bcc4	-0.48190892
20	0xbe94149a	-0.28921968
21	0x3f0d206e	0.5512761
22	0xbdb9521e	-0.09048866
23	0xbf85ff8a	-1.0468609
24	0xbe05bbf6	-0.13059983
25	0xbd75afd7	-0.059982147
26	0xbe685ed0	-0.22692418
27	0xbea35d70	-0.31907225
28	0x3eab8081	0.33496478
29	0x3ede947a	0.43472654
30	0xbe3d5875	-0.18490775
31	0xbf50ade4	-0.81515336
32	0xbd30260d	-0.043005038
33	0xbd11e7c8	-0.035621434
34	0xbe523f3d	-0.20531936
35	0xbe8f3070	-0.27966642
36	0xbe7d9029	-0.24762024
37	0xbdf5b2b2	-0.11996974
38	0xbe3b26a2	-0.18276456
39	0x3ec31b14	0.38106596
40	0x3cd5da12	0.02610496
41	0xbc047075	-0.0080834525
42	0x3b9719c3	0.0046112253
43	0xbe2ac655	-0.1667722
44	0xbe114eb6	-0.14190182
45	0x3f12d034	0.5734894
46	0x3e1cb996	0.1530517
47	0xbedfaa6f	-0.43684718
48	0x3cc8c6c8	0.024508849
49	0x3c75d3ac	0.01500408
50	0xbeac9d2a	-0.33713657
51	0xbe521111	-0.20514323
52	0xbd866cc9	-0.06563718
53	0xbf1b26f4	-0.6060631
54	0x3e88d8c3	0.26727876
55	0xbec6b7b7	-0.38812038
56	0xbd1bfe75	-0.038084466
57	0xbd0b759e	-0.034047715
58	0xbe858ee0	-0.26085567
59	0xbecbe0e3	-0.39820012
60	0x3f1528c9	0.5826536
61	0xbd01ea1c	-0.031717405
62	0x3d08574e	0.033286385
63	0xbfb6f12f	-1.4292353
64	0x3cad557c	0.021158926
65	0xbdbe9da5	-0.09307412
66	0xbc59be50	-0.013290003
67	0xbc846bf8	-0.016164765
68	0x3c9baa24	0.019002028
69	0xbce435d4	-0.027857699
70	0xbd426cce	-0.047467045
71	0x3c7ecdd0	0.015551999
72	0xbba86ec6	-0.0051401583
73	0xbcc02c8e	-0.023458745
74	0xbe810aba	-0.25203496
75	0xbe250ee8	-0.16118968
76	0xbd9184c1	-0.07105399
77	0x3ee751aa	0.45179492
78	0x3cc720bc	0.024307601
79	0xbf9d2286	-1.2276161
80	0xbd21d6bb	-0.039511424
81	0xbcdb1ab1	-0.026746126
82	0xbeb23107	-0.3480303
83	0xbe87d0c1	-0.26526454
84	0x402dde40	2.71669
85	0x3fbcdfc6	1.475579
86	0xbe114e74	-0.14190084
87	0xbf9ab13e	-1.208534
88	0x3ae0b178	0.0017142734
89	0xbd702b7d	-0.058635224
90	0x3cd62fa4	0.026145764
91	0xbae1e540	-0.001723446
92	0xbd1d9048	-0.038467675
93	0xbc7305d8	-0.014832936
94	0x3c7f95a0	0.015599638
95	0x3cc5a128	0.024124697
96	0x3b9b46ee	0.00473868
97	0xbd1f704a	-0.038925447
98	0xbe5c66cc	-0.21523589
99	0xbe8d90de	-0.27649587
100	0x3e7badbf	0.24577998
101	0x3e907d91	0.282208
102	0xbe5e63fa	-0.21717826
103	0xbf6ee713	-0.9332134
104	0xbc36560e	-0.0111289155
105	0xbcd864a0	-0.02641517
106	0xbeb53706	-0.35393542
107	0xbe851db7	-0.25999233
108	0x400bfee9	2.1874335
109	0xbe84df5d	-0.25951663
110	0x3fa59e90	1.2939014
111	0xbf9b95ab	-1.215505
112	0xbd5b5b50	-0.05355388
113	0x3d3f4af2	0.046702333
114	0x3e0f09bf	0.13968562
115	0x3ec1d829	0.3786023
116	0x3edf51d7	0.43617126
117	0xbe92f97c	-0.28705966
118	0xbe76d7e8	-0.24105799
119	0xbeede45e	-0.46463293
120	0xbb6a3d00	-0.0035741925
121	0xbd62ac24	-0.055339947
122	0x3cd7b631	0.026331993
123	0x3cea8fa1	0.02863294
124	0x3d844ecc	0.06460342
125	0xbc687f9c	-0.014190581
126	0xbd50171d	-0.050803293
127	0x3d1ef627	0.038808968
128	0x3c4d1b06	0.01251865
129	0x3d1b88a8	0.037972122
130	0xbc6e8360	-0.014557689
131	0x3d398eba	0.04530213
132	0xbd30c154	-0.043153122
133	0x3d632d26	0.05546298
134	0x3d42c594	0.047551706
135	0x3d33076a	0.043708242
136	0x3da33ed0	0.07970965
137	0x3d189b48	0.037257463
138	0xbd999ef6	-0.075010225
139	0xbb8735f7	-0.004126306
140	0xbdb5081c	-0.08839437
141	0xbd006111	-0.03134257
142	0xbcb24fff	-0.02176666
143	0xbd8cf5bd	-0.06882808
144	0xbd87ec71	-0.066368945
145	0xbd98711d	-0.0744345
146	0xbe435f06	-0.19079217
147	0xbe86ec56	-0.26352185
148	0x3ea6ac26	0.32553214
149	0xbdb58e54	-0.088650376
150	0xbe58833d	-0.21143813
151	0xbf7f142b	-0.9964015
152	0xbd4ee557	-0.050511684
153	0xbb834969	-0.004006554
154	0xbe9bd496	-0.30435628
155	0xbf01b6b0	-0.50669384
156	0xbeaf0373	-0.3418232
157	0x3e3041de	0.17212626
158	0xbed101d2	-0.408217
159	0xbf9ba23f	-1.2158889
160	0x3d389126	0.0450603
161	0xbcb057ae	-0.021526184
162	0xbc005f9e	-0.007835297
163	0xbc19b7d7	-0.00938221
164	0xbceae618	-0.02867417
165	0x3bf02226	0.0073282896
166	0x3d92d288	0.07169062
167	0xbb01b193	-0.001978968
168	0x3d1e7511	0.038685862
169	0xbd88e148	-0.06683594
170	0x3e197b1a	0.14988366
171	0xbdf19472	-0.11795892
172	0xbdd7ecde	-0.10543226
173	0x3f0eb4e6	0.5574478
174	0xbe30d784	-0.17269713
175	0xbf7954c8	-0.9739499
176	0xbd90fee8	-0.070798695
177	0xbbd845f2	-0.006600135
178	0xbe0050c2	-0.12530807
179	0xbe2cbf41	-0.16869833
180	0xbd9f1054	-0.07766786
181	0x3d586a82	0.05283595
182	0xbe1f8b4a	-0.15580478
183	0xbe4da8d8	-0.2008394
184	0xbc66b5f0	-0.014081463
185	0xbcb29f35	-0.021804431
186	0xbe9193cf	-0.28433082
187	0xbe5b74c9	-0.21431269
188	0x3e064200	0.13111115
189	0xbe2cd733	-0.16878967
190	0xbe1e95f1	-0.15486886
191	0xbf2ba6e2	-0.6705152
192	0xbdada56a	-0.08478816
193	0xbd9a8af3	-0.07546034
194	0xbd3d7708	-0.046256095
195	0x3d463528	0.048390538
196	0x3d288514	0.04114254
197	0xbd0920b9	-0.033478472
198	0xbd97c8aa	-0.074113205
199	0xbcfe7779	-0.031062828
200	0x3d3cfba2	0.046138413
201	0x3bc6f214	0.0060713384
202	0xbe05e378	-0.13075054
203	0xbe0a1fe4	-0.13488728
204	0xbe545593	-0.20735769
205	0xbf77c489	-0.96784264
206	0xbe623538	-0.22090614
207	0x3eaf21fe	0.3420562
208	0xbce4d2d7	-0.027932568
209	0x3c906ee0	0.017630994
210	0xbe4fd5c6	-0.20296392
211	0xbe1cfa3b	-0.1532983
212	0xbe45b3fe	-0.19306943
213	0xbb258417	-0.0025255734
214	0xbe62c055	-0.22143681
215	0xbed99e6b	-0.42503676
216	0xbd0640bd	-0.032776583
217	0x3b600c05	0.0034186852
218	0xbe33929d	-0.17536397
219	0xbe3b62e6	-0.18299446
220	0x3e8a0e03	0.26963815
221	0xbce04c02	-0.027379993
222	0xbe2d1318	-0.16901815
223	0xbf732a65	-0.94986564
224	0x3cbabaab	0.022794088
225	0x3bdb5cf9	0.006694433
226	0xbe7cb649	-0.24678911
227	0xbe74bdfb	-0.23900597
228	0x3f081ec0	0.5317192
229	0xbd5b2500	-0.053502083
230	0xbbb9d17b	-0.005670724
231	0xbfaf31db	-1.368709
232	0x3d140c7a	0.03614471
233	0xbd095504	-0.033528343
234	0xbe2e10d0	-0.16998601
235	0xbe2ba312	-0.16761425
236	0x3ec2188e	0.3790936
237	0xbe981fca	-0.29711753
238	0xbd95785a	-0.07298346
239	0xbf899dd9	-1.0751296
240	0xbc4d7453	-0.012539941
241	0xbc17159a	-0.009221459
242	0xbe3ae9b2	-0.1825321
243	0xbe9205ad	-0.28519955
244	0x3ec5a30a	0.3860095
245	0x3de7495b	0.11293288
246	0xbe8be799	-0.27325132
247	0xbfa1ca56	-1.2639873
248	0xbccb1862	-0.0247919
249	0xbd842a26	-0.06453352
250	0xbf08ad37	-0.53389305
251	0xbe718a86	-0.23587999
252	0xbe965e77	-0.29368946
253	0x3eb9916b	0.36243758
254	0xbe3eb964	-0.18625408
255	0xbf3d5191	-0.73952585

fc1.bias f4 [64]
0	0xbf1e31b0	-0.6179457
1	0xbe4bfaf5	-0.19919951
2	0xbe1ee9be	-0.15518853
3	0xbda2f705	-0.079572715
4	0xbf1f3d93	-0.6220333
5	0xbe5172f4	-0.20454007
6	0xbda74849	-0.08168084
7	0xbf001672	-0.5003425
8	0xbe9303cf	-0.28713843
9	0xbf27ad8d	-0.6549919
10	0xbeab11c5	-0.33411995
11	0xbec55d1f	-0.38547608
12	0x3edd912c	0.4327482
13	0xbf1d71f2	-0.6150199
14	0x3e8c686d	0.2742342
15	0xbef5ba78	-0.47993827
16	0xbec7df6b	-0.39037642
17	0x3efc5fa6	0.49291724
18	0xbf3682b9	-0.71293217
19	0x3e096bbd	0.13420005
20	0xbf2e73a1	-0.68145186
21	0xbe8b5735	-0.2721497
22	0xbf095755	-0.53648883
23	0xbf6da7fd	-0.92834455
24	0xbd0df759	-0.034659717
25	0xbe8e908b	-0.27844653
26	0xbf0e6363	-0.556204
27	0xbe50a3ac	-0.20374936
28	0xbf5fe05a	-0.8745171
29	0xbef385bb	-0.47562966
30	0xbf350079	-0.70703846
31	0xbe20d8f3	-0.1570776
32	0xbe81c2ca	-0.25343925
33	0xbeca1241	-0.39467052
34	0xbdf957a6	-0.12174921
35	0xbf6a82d5	-0.91605884
36	0xbd2946b5	-0.041327197
37	0xbeba811d	-0.3642663
38	0xbecfa683	-0.40556726
39	0xbd39219f	-0.04519808
40	0xbf0784d1	-0.52937037
41	0xbc4588b7	-0.012056521
42	0x3e863209	0.2621005
43	0xbe36f649	-0.17867388
44	0xbf3bdf2e	-0.7338742
45	0xbf3b8cff	-0.7326202
46	0xbed943d5	-0.42434564
47	0xbf19b06f	-0.6003484
48	0xbd1392e5	-0.03602876
49	0xbe2860d3	-0.16443186
50	0xbe3f1c08	-0.18663037
51	0xbe5b5392	-0.21418598
52	0xbe111f3d	-0.14172073
53	0xbee5f0fa	-0.44910413
54	0xbe3d36ab	-0.18477885
55	0xbe56c678	-0.20974147
56	0xbd668b47	-0.05628517
57	0xbeebef8d	-0.460812
58	0xbe72bfcc	-0.23705977
59	0xbf15e6a5	-0.5855506
60	0xbe15b555	-0.14619954
61	0xbf115621	-0.5677205
62	0xbe26749b	-0.16255419
63	0xbd62a2c6	-0.055331014

fc2.weight f4 [2, 64]
0	0xbf0b123c	-0.543247
1	0x3c731f4b	0.014839004
2	0xbdc1706e	-0.094452724
3	0x3ca1b35c	0.019738846
4	0x3dade513	0.08490958
5	0x3cb7fb4d	0.022458697
6	0xbebd547f	-0.36978528
7	0x3d801ea9	0.06255848
8	0xbc5bea3e	-0.013422547
9	0x3e37b82a	0.17941347
10	0x3e232373	0.15931492
11	0xbd8460cc	-0.06463775
12	0x3dc4de7e	0.096127495
13	0x3df34375	0.11878101
14	0xbf7841a8	-0.96975183
15	0x3ea2a676	0.31767625
16	0xbdb2722b	-0.08713182
17	0x3e4777c6	0.19479284
18	0xbe8b0dda	-0.27159005
19	0x3e2d2f21	0.1691251
20	0xbec27aae	-0.37984222
21	0x3aab3db8	0.0013064658
22	0x3e137fa5	0.14404161
23	0xbc7258e1	-0.014791698
24	0x3e4c3929	0.1994368
25	0x3e80be7b	0.25145325
26	0xbfce4578	-1.611495
27	0xbdafeefb	-0.08590504
28	0xbe1e9318	-0.154858
29	0xbf0fdd8c	-0.5619743
30	0x3dd76eea	0.10519202
31	0xbd4f962e	-0.050680332
32	0xbdeba094	-0.11505237
33	0x3ac8f141	0.0015330688
34	0x3d83880b	0.064224325
35	0xbd906dbf	-0.070521824
36	0xbde8a263	-0.11359098
37	0x3e838548	0.25687623
38	0xbf259e83	-0.64694995
39	0x3d9dd78b	0.07707127
40	0x39cd8fae	0.00039207697
41	0x3f20507c	0.6262281
42	0xbf112065	-0.56690055
43	0xbec32153	-0.38111362
44	0xbea2b5b7	-0.31779262
45	0x3e2f14bd	0.17097755
46	0x3dd63815	0.104599155
47	0xbe7bc3b3	-0.24586372
48	0x3cec2bd0	0.028829485
49	0xb9f27e3f	-0.00046251898
50	0x3d036152	0.032075234
51	0xbd0b1e13	-0.033964228
52	0xbc4e7e2c	-0.012603324
53	0x3d81a4cc	0.06330261
54	0x3d14da2e	0.036340885
55	0x3d4bd712	0.049765654
56	0x3e19b5b5	0.15010722
57	0xbefe82fa	-0.49709302
58	0xbdc22552	-0.094797745
59	0xbda67bca	-0.0812908
60	0x3d15afeb	0.03654472
61	0xbecd1d48	-0.40061402
62	0xbf6513d1	-0.8948336
63	0x3da51ef7	0.08062547
64	0x3f33ca87	0.7023091
65	0x3c99a2eb	0.018754443
66	0xbd804a31	-0.06264151
67	0xbcde61f3	-0.027146315
68	0xbdea0e37	-0.114284925
69	0xbbf90bde	-0.0076002916
70	0x3e826523	0.25467786
71	0xbcea2d9b	-0.0285862
72	0xbd75ea81	-0.060038093
73	0xbe29250b	-0.16518037
74	0xbe04d15f	-0.12970494
75	0xbd9aeb2b	-0.07564386
76	0xbe93b5f6	-0.28849763
77	0x3c0249fb	0.007952209
78	0x3f661ba3	0.8988592
79	0xbdfaaca4	-0.1223996
80	0xbd2c88e8	-0.04212275
81	0xbe70eaf8	-0.23527133
82	0x3d67465b	0.05646358
83	0xbd86d98a	-0.06584461
84	0x3eb9d020	0.362916
85	0xbdfd753e	-0.12375878
86	0x3cbb2541	0.022844912
87	0xbb8e0f6a	-0.0043353336
88	0xbe99a49c	-0.300084
89	0xbeca3fb1	-0.39501718
90	0x3fd08f69	1.6293765
91	0xbe02b5e1	-0.12764694
92	0x3e56e2a2	0.20984891
93	0x3f19c6c9	0.6006895
94	0x3d3e0b4f	0.046397503
95	0xbd806e3b	-0.06271025
96	0xbde00f2d	-0.109403946
97	0xbd3a3bf5	-0.045467336
98	0xbd630ba4	-0.055431023
99	0x3e03dd7b	0.12877457
100	0xbcbe816b	-0.02325507
101	0xbdc8fbea	-0.09813674
102	0x3f369fca	0.7133757
103	0xbdf9f70c	-0.122053236
104	0xbe257ee5	-0.16161688
105	0xbf17a215	-0.5923169
106	0x3f123f50	0.5712786
107	0x3eeedd3d	0.46653166
108	0x3e66489a	0.22488633
109	0xbd740307	-0.0595732
110	0x3caac148	0.020844117
111	0x3ecb6170	0.39722776
112	0x3d4b2d6d	0.04960387
113	0x3bb56c31	0.005536579
114	0x3dffb2af	0.12485253
115	0xbc35c802	-0.011095049
116	0x3c8b8a53	0.017033732
117	0x3d89f5a7	0.067363076
118	0x3d5304da	0.0515183
119	0x3da012dd	0.07816098
120	0xbd982716	-0.0742933
121	0x3f358413	0.70904654
122	0x3df1aee8	0.11800939
123	0x3deca346	0.115545794
124	0x3d995c9f	0.07488369
125	0x3effb1e3	0.49940404
126	0x3f4df9f3	0.8045952
127	0x3c864be1	0.016393604

fc2.bias f4 [2]
0	0x3f0341d8	0.51272345
1	0xbefae956	-0.49006146
