model.pth (torch, 75624 bytes, 8 tensors)

conv1.weight f4 [16, 1, 3]
0.08441039 0.27473262 -0.062479023 -0.48546475 -0.3966009 0.1786096 0.5447145 0.29826352
-0.20346479 -0.034647245 0.27695668 -0.14983527 -0.28776735 0.4640221 -0.6179208 -0.15041088
-0.13877562 -0.72751015 0.12621456 -0.54638577 0.47665915 -0.24716406 0.40328217 -0.50408244
0.1677483 0.47298387 0.27330932 0.15711851 0.4134187 0.4259576 -0.38118103 -0.18918958
0.17279835 -0.41941786 -0.22455786 -0.41126373 -2.5927043 -2.5860417 -0.8469402 0.12817056
-0.58620983 -0.58578694 -0.3605046 0.3367579 -0.3148874 -0.108150326 0.04041985 -0.037306473
00000000: 5bdf ac3d c1a9 8c3e 01ea 7fbd d68e f8be
00000010: 460f cbbe 6fe5 363e 6972 0b3f ffb5 983e
00000020: 1359 50be 45ea 0dbd 44cd 8d3e 6b6e 19be
00000030: 3e56 93be 4e94 ed3e 0f30 1ebf 4f05 1abe
00000040: 321b 0ebe 1b3e 3abf 643e 013e f0df 0bbf
00000050: ab0c f43e 9318 7dbe 007b ce3e 8c0b 01bf
00000060: 36c6 2b3e f12a f23e 33ef 8b3e ade3 203e
00000070: 9eab d33e 1d17 da3e 292a c3be eaba 41be
00000080: 0df2 303e f0bd d6be 7ff2 65be 2991 d2be
00000090: deee 25c0 b581 25c0 13d1 58bf 253f 033e
000000a0: d911 16bf 22f6 15bf 0f94 b8be 886b ac3e
000000b0: ec38 a1be eb7d ddbd 498f 253d acce 18bd

conv1.bias f4 [16]
-0.85306907 0.12027885 -2.4489105 -0.001899152 -0.5239335 -0.005266313 0.26019672 -0.46903944
-0.50205415 0.23986934 -0.40741557 0.4704617 1.5992395 0.48069367 -0.044960905 -0.04540214
00000000: bc62 5abf c254 f63d f3ba 1cc0 f7ec f8ba
00000010: 8120 06bf 0991 acbb 8138 853e f025 f0be
00000020: 9f86 00bf 4fa0 753e c698 d0be 5be0 f03e
00000030: e1b3 cc3f 7b1d f63e ed28 38bd 98f7 39bd

conv2.weight f4 [32, 16, 3]
0.03636625 -0.08798025 -0.21216772 -0.40091366 -0.6068978 -0.26540932 -0.3029159 0.07408501
-0.15153606 -0.16511327 -0.03736698 -0.45646682 -0.04909245 0.09258555 0.06826926 -0.12885702
-0.19450922 -0.24601144 -0.101380154 -0.14105673 -0.3304175 -0.10433724 0.04737789 -1.5143604
-0.07720776 -0.050678473 -0.26456589 -0.1495575 0.011734429 -0.46956086 -0.072245225 0.062382948
0.09723763 0.0007300563 -0.12418263 0.004594999 -1.7706422 0.6812115 0.5378029 0.96083957
-0.18637231 -0.47630385 -0.060891174 0.05571693 -0.41957447 -0.17783673 -0.15609248 0.038839325
-0.14929888 -0.018703215 -0.013722402 0.03556147 -0.11521479 -0.15403275 0.025393445 0.041142866
-0.15089071 0.017862368 -0.12263864 -0.16577889 -0.056851808 0.1330958 0.003381621 -0.01991991
-0.0858091 -0.07794516 -0.006749693 0.0454692 -0.25162524 -0.09538107 -0.11297665 -0.056757253
-0.11764395 -0.10985025 -0.07266725 -0.102965735 -0.06508026 -0.07710534 -0.026156291 -0.0067151506
0.1176731 0.0038762705 0.036872454 -0.1550314 0.057985585 -0.27047676 -0.23066254 0.038537208
-0.00016345747 -0.1879454 0.030891702 -0.016009964 -0.18021451 -0.029070454 -0.12099363 -0.23566204
-0.13620512 0.09800156 -0.15617995 0.10610059 0.11030745 3.7148693 -0.049197305 -0.10651234
-0.12393416 -0.07798374 -0.27914202 -0.15576239 -0.09394624 -0.065867424 0.12416483 0.06030349
-0.038490623 0.109794654 -1.515784 0.07193209 -0.1211579 0.024059791 -0.2221907 0.12787485
-0.12214333 -0.11316559 -0.048353944 -1.8619279 -0.062723376 -0.11090322 -0.098854944 -0.07042849
0.101808526 -0.01612051 0.109502584 0.09688359 0.11095608 0.01429288 -0.78628004 -0.4930525
-0.33244362 -0.168437 -0.24164496 -0.10943093 0.08761032 0.010126417 -0.105412096 0.13076249
-0.0112086395 -0.13799654 0.06434047 -0.5054205 -0.69753873 2.82048 -0.18620324 0.010142242
-0.01809231 -0.15113568 -0.61546916 -0.67501307 0.07850607 -0.03163274 -0.08607418 -0.1496942
-0.66415036 -0.53063256 -0.2992874 -0.3966456 -0.5705233 0.0048372797 0.01580623 0.0073349867
-0.050106514 -0.14441524 0.07440905 -0.30798087 -0.4758487 -0.8354706 -0.12418842 -0.105554916
0.015224066 -0.16176276 -0.079653524 -0.5851941 -0.072465636 1.1934898 -3.1217818 -0.39858767
-0.6045935 -0.40633065 -0.11243818 -0.5863978 -0.7852927 -0.11200507 -0.48506534 -0.6281179
-0.017258812 0.016134715 -0.063577645 -0.09155277 -0.1313626 -0.7552337 0.024774041 0.01860574
-0.05658954 -0.08922768 -0.14815105 0.06782181 0.027550299 -0.102936156 0.093729205 -0.0075801066
-0.035966247 -0.11891624 -0.06839482 -0.001042673 -0.0109081315 -0.079391435 -0.039352074 0.093837075
-0.060381774 0.04244471 -0.1117775 -0.10997275 0.0039385697 -0.18225557 0.034070894 0.06158567
0.070273295 -0.25988847 -0.0067313057 -0.21953666 -0.042570412 0.13177013 0.058081508 -0.05401291
0.03948157 0.068705335 -0.1988987 -0.13992758 -0.08131071 -0.014092496 0.0017867429 -0.07567077
-0.12699613 0.055071443 0.062493943 0.05102525 -0.07042494 3.458682 0.041472297 0.09889624
0.069131985 0.014320675 0.069616355 -0.22757769 0.028881159 -0.0922154 -0.0731861 -0.066591725
00000000: c7f4 143d fd2e b4bd 7f42 59be 8e44 cdbe
00000010: a75d 1bbf bbe3 87be cb17 9bbe e2b9 973d
00000020: 452c 1bbe 7413 29be 1e0e 19bd 05b6 e9be
00000030: 2a15 49bd 7e9d bd3d c1d0 8b3d 18f3 03be
00000040: 6d2d 47be 6cea 7bbe 66a0 cfbd 2d71 10be
00000050: 7c2c a9be c3ae d5bd 520f 423d 90d6 c1bf
00000060: 1a1f 9ebd 3b94 4fbd 2e75 87be 9a25 19be
00000070: c341 403c 486a f0be 4ef5 93bd 4385 7f3d
00000080: 8624 c73d 4061 3f3a 7653 febd a591 963b
00000090: 67a4 e2bf e063 2e3f 73ad 093f 95f9 753f
000000a0: 62d8 3ebe 19de f3be 0669 79bd 7037 643d
000000b0: 77d2 d6be d51a 36be b5d6 1fbe fc15 1f3d
000000c0: cee1 18be 7c37 99bc edd3 60bc e7a8 113d
000000d0: bbf5 ebbd c3ba 1dbe ea05 d03c 6c85 283d
000000e0: 1883 1abe 1a54 923c f829 fbbd f1c1 29be
000000f0: 71dd 68bd 444a 083e 309e 5d3b 142f a3bc
00000100: aebc afbd b6a1 9fbd 872c ddbb e93d 3a3d
00000110: 06d5 80be 2757 c3bd 4d60 e7bd 4b7a 68bd
00000120: 50ef f0bd 2bf9 e0bd 91d2 94bd b3df d2bd
00000130: cd48 85bd 68e9 9dbd b845 d6bc c40a dcbb
00000140: 98fe f03d 0709 7e3b 9207 173d 8dc0 1ebe
00000150: 4b82 6d3d ee7b 8abe cd32 6cbe 31d9 1d3d
00000160: c865 2bb9 c274 40be 9810 fd3c 5427 83bc
00000170: 278a 38be 2925 eebc 82cb f7bd 6451 71be
00000180: 5b79 0bbe 0bb5 c83d a3ed 1fbe 444b d93d
00000190: dfe8 e13d 6bc0 6d40 1d83 49bd 2423 dabd
000001a0: 31d1 fdbd f0b5 9fbd b4eb 8ebe 2d80 1fbe
000001b0: e366 c0bd 80e5 86bd 214a fe3d cb00 773d
000001c0: 58a8 1dbd 05dc e03d 3605 c2bf 2251 933d
000001d0: a221 f8bd 0a19 c53c f585 63be a0f1 023e
000001e0: 4826 fabd 5cc3 e7bd c90e 46bd a753 eebf
000001f0: 1d75 80bd 3a21 e3bd 7674 cabd d03c 90bd
00000200: fd80 d03d 290f 84bc e442 e03d e76a c63d
00000210: f13c e33d af2c 6a3c a649 49bf 6171 fcbe
00000220: 0d36 aabe c07a 2cbe c771 77be 531d e0bd
00000230: 0a6d b33d 45e9 253c 4ce2 d7bd 9ae6 053e
00000240: 71a4 37bc f74e 0dbe f0c4 833d 3d63 01bf
00000250: e691 32bf bf82 3440 10ac 3ebe a52b 263c
00000260: 5336 94bc 50c3 1abe 638f 1dbf a8cd 2cbf
00000270: cac7 a03d 5591 01bd a947 b0bd 7049 19be
00000280: c205 2abf 89d7 07bf 333c 99be 2215 cbbe
00000290: d10d 12bf 0b82 9e3b 117c 813c 545a f03b
000002a0: 7d3c 4dbd 97e1 13be c663 983d abaf 9dbe
000002b0: 71a2 f3be 67e1 55bf 8056 febd 2d2d d8bd
000002c0: 5c6e 793c 23a5 25be 6321 a3bd 48cf 15bf
000002d0: dd68 94bd 46c4 983f 46cb 47c0 af13 ccbe
000002e0: a4c6 1abf 920a d0be fd45 e6bd 2b1e 16bf
000002f0: f108 49bf ea62 e5bd 7c5a f8be 56cc 20bf
00000300: 5a62 8dbc f32c 843c ff34 82bd 0580 bbbd
00000310: eb83 06be ff56 41bf eef2 ca3c 116b 983c
00000320: 6fca 67bd 00bd b6bd e9b4 17be 29e6 8a3d
00000330: 2ab1 e13c 31d0 d2bd 19f5 bf3d 8b62 f8bb
00000340: 5851 13bd 5c8a f3bd 9512 8cbd 4daa 88ba
00000350: 05b8 32bc fa97 a2bd a42f 21bd a72d c03d
00000360: e152 77bd 81da 2d3d 9aeb e4bd 6539 e1bd
00000370: 1e0f 813b 34a1 3abe ec8d 0b3d 4141 7c3d
00000380: 72eb 8f3d 1a10 85be 4992 dcbb 38ce 60be
00000390: 505e 2ebd c0ee 063e e0e6 6d3d a43c 5dbd
000003a0: 6db7 213d 62b5 8c3d 1aac 4bbe 2d49 0fbe
000003b0: 3b86 a6bd 36e4 66bc 2531 ea3a 47f9 9abd
000003c0: 460b 02be 9892 613d a6f9 7f3d daff 503d
000003d0: f33a 90bd 0c5b 5d40 dbde 293d 1d8a ca3d
000003e0: 1295 8d3d 44a1 6a3c 0593 8e3d 200a 69be
000003f0: 2e98 ec3c 6ddb bcbd 98e2 95bd 3e61 88bd

conv2.bias f4 [32]
0.045066204 -0.2844662 0.1517423 0.92795473 -0.14021745 -0.06153737 0.28243577 -0.20313515
-0.19906451 0.09884324 0.37961274 -0.11874373 0.4779478 -0.6237955 0.33860502 -0.19271475
-0.22953285 0.45736322 -0.14746493 0.09231378 0.019185873 0.4690814 -0.13399544 0.094664425
0.07332663 0.8143725 -0.15212339 0.052590434 0.34902096 0.100609906 0.58184725 -0.01259648
00000000: 5797 383d 8ea5 91be 5562 1b3e 718e 6d3f
00000010: 2a95 0fbe 9c0e 7cbd 6c9b 903e a902 50be
00000020: 91d7 4bbe 536e ca3d 9a5c c23e ea2f f3bd
00000030: 93b5 f43e 10b1 1fbf a35d ad3e 0457 45be
00000040: a90a 6bbe 832b ea3e 0c01 17be 020f bd3d
00000050: b12b 9d3c 702b f03e 1a36 09be 6cdf c13d
00000060: 462c 963d b77a 503f 3cc6 1bbe 1169 573d
00000070: e0b2 b23e 910c ce3d f1f3 143f 7761 4ebc

fc1.weight f4 [64, 256]
-0.026049603 -0.5779615 -0.8916666 0.0053341025 0.036048595 0.16790123 -0.0067885104 0.34353516
-0.066677846 -0.14277905 0.027186893 0.0187724 0.054035023 0.051495723 0.005577599 0.017987855
-0.036242746 0.03522616 -0.08496484 -0.04844505 -0.09143572 -0.23984653 -0.010456972 0.08655033
-0.0931774 -0.025118938 -0.13737805 -0.27722815 -0.27458867 -0.21316619 -0.98937446 0.57131433
-0.0074286987 0.060739897 -0.06827331 -0.12848379 -0.11390142 0.014094212 -0.14578086 -0.086090416
-0.018441787 -0.02349847 -0.2727925 -0.13635668 -0.180627 -0.15660805 -0.19323175 0.05880389
0.020050526 0.028282925 -0.17241712 -0.2539282 -0.17522524 -0.1490542 -0.20043287 0.4493846
0.015708061 -0.0081552025 -0.006989427 0.045668058 0.03663051 0.05593659 0.03648714 0.01981964
0.081936054 -0.10561909 -0.00074505806 0.011350907 -0.059553504 -0.0055744275 0.015729845 0.010880833
-0.039589502 0.035248045 -0.23782445 -0.20447174 -0.25856772 -0.17829472 -0.15578736 0.08336366
0.0019322479 -0.019441973 -0.085860334 -0.29247078 -0.3058538 -0.25227356 -0.24367675 0.40736678
0.085129865 -0.061913855 0.0027333945 -0.00027238578 0.043987863 -0.027321547 -0.016455911 0.031238481
-0.029995954 -0.0064994027 -0.5972732 -0.11714379 -0.09668424 0.2449396 -0.16735028 0.09463625
-0.018229917 -0.012618112 0.056888588 0.03402426 -0.008694656 0.046121053 0.039279852 0.027853265
0.036759946 0.051639725 -0.17990096 -0.04282463 -0.049954936 -0.17840111 -0.099413164 0.05092465
-0.035078816 -0.03560455 -0.0010127798 0.014590189 -0.03755439 -0.057274684 -0.036306426 0.025563449
-0.087426595 0.023800544 -0.03542666 -0.051165402 -0.049869858 -0.022498026 0.044047005 0.04617989
-0.049831092 -0.13348114 -0.21045847 -0.26438093 -0.2162814 -0.16152565 -1.3572509 0.37557408
-0.006867456 0.062408917 -0.035909545 -0.11740933 -0.056461666 -0.18576168 -0.021267843 0.106074326
-0.031699814 -0.024891056 0.00075671304 0.43224624 0.5913804 -1.0297691 0.70907205 -0.0014182226
0.041177504 -0.06297128 -0.21021645 -0.29378787 -0.29588652 -0.19597624 -0.17186975 0.06097375
-0.048111085 0.0030261478 -0.25094274 -0.22631924 -0.22197628 -0.11274864 -0.39321533 0.4612444
-0.0031042672 -0.056793056 0.017859913 0.016105413 -0.033486933 -0.016033612 -0.045919076 -0.052148297
-0.039197244 -0.05274201 -0.14759926 -0.14370807 -0.17527217 -0.19182497 -0.12567738 0.08673603
0.013858391 0.07412384 -0.04120889 0.03634949 -0.075599514 0.25779328 0.0470532 -0.37126505
0.047112867 -0.017242927 -0.39806738 -0.13331155 -0.20179686 -0.22152968 0.99635035 0.22799988
0.025325276 -0.036084644 -0.043723986 0.005672641 -0.00050136447 -0.015156329 -0.054042466 -0.05583375
0.018215312 0.024265818 -0.04972584 -0.12425019 -0.021511465 0.051014144 0.029694553 -0.11717259
-0.0314315 -0.018915258 0.6637047 -0.61337155 0.59480053 0.2536685 0.05940758 -0.16147876
0.010567313 -0.05043334 -0.21308258 -0.2716207 -0.19043502 -0.27142996 -0.20663945 0.35611203
-0.025329895 0.03328944 -0.21826394 -0.21595463 -0.18118106 -0.13116963 0.40194675 0.40440798
-0.09278598 0.013620757 -0.2743519 -0.123711586 -0.18469836 -0.1905649 -0.09913003 0.09805988
00000000: fa65 d5bc 49f5 13bf 4344 64bf b2c9 ae3b
00000010: b1a7 133d 4dee 2b3e 2772 debb d7e3 af3e
00000020: 658e 88bd ac34 12be 0cb7 de3c 94c8 993c
00000030: d453 5d3d 2eed 523d 4bc4 b63b 445b 933c
00000040: 4673 14bd 4e49 103d 0c02 aebd 516e 46bd
00000050: a742 bbbd 549a 75be b853 2bbc 4d41 b13d
00000060: cbd3 bebd 3bc6 cdbc d5ac 0cbe d9f0 8dbe
00000070: e396 8cbe 3d48 5abe a547 7dbf a841 123f
00000080: 716c f3bb 66ca 783d e1d2 8bbd 4191 03be
00000090: 2645 e9bd 69eb 663c 9447 15be 2c50 b0bd
000000a0: 3b13 97bc dd7f c0bc 75ab 8bbe 16a1 0bbe
000000b0: 49f6 38be dc5d 20be 8bde 45be 59dc 703d
000000c0: 0041 a43c 98b1 e73c 1d8e 30be e102 82be
000000d0: 3f6e 33be aaa1 18be 463e 4dbe bd15 e63e
000000e0: 31ae 803c 669d 05bc 9007 e5bb 6e0e 3b3d
000000f0: e009 163d c41d 653d 8a73 153d cc5c a23c
00000100: 17ce a73d d24e d8bd 0050 43ba 28f9 393c
00000110: 60ee 73bd b0a9 b6bb e0db 803c 8545 323c
00000120: 9a28 22bd 4160 103d 4188 73be 0a61 51be
00000130: fd62 84be e492 36be b986 1fbe 91ba aa3d
00000140: 7b43 fd3a c644 9fbc 8bd7 afbd bbbe 95be
00000150: df98 9cbe 002a 81be 6686 79be 6192 d03e
00000160: 9158 ae3d 6299 7dbd c022 333b 00cf 8eb9
00000170: 9e2c 343d 70d1 dfbc 8cce 86bc d8e7 ff3c
00000180: 13ba f5bc f1f8 d4bb e5e6 18bf 15e9 efbd
00000190: 6302 c6bd 72d1 7a3e df5d 2bbe a6d0 c13d
000001a0: e856 95bc 33bc 4ebc 0204 693d 065d 0b3d
000001b0: 0874 0ebc 6ee9 3c3d e9e3 203d 882c e43c
000001c0: 9991 163d 2d84 533d f537 38be e168 2fbd
000001d0: 8c9d 4cbd c8ae 36be 2199 cbbd 5e96 503d
000001e0: ceae 0fbd 14d6 11bd 40bf 84ba b00b 6f3c
000001f0: a2d2 19bd dc98 6abd 0cb6 14bd 706a d13c
00000200: b70c b3bd 5cf9 c23c 8c1b 11bd d092 51bd
00000210: 5644 4cbd c84d b8bc a26a 343d 2027 3d3d
00000220: b01b 4cbd 48af 08be 6d82 57be f05c 87be
00000230: df78 5dbe fb66 25be 66ba adbf 3f4b c03e
00000240: 6508 e1bb 7ea0 7f3d e315 13bd 4e74 f0bd
00000250: 5944 67bd 4f38 3ebe e639 aebc 7f3d d93d
00000260: aad7 01bd 54e8 cbbc 275e 463a 614f dd3e
00000270: b564 173f 79cf 83bf bf85 353f a7e3 b9ba
00000280: bea9 283d 16f7 80bd fb42 57be 5d6b 96be
00000290: 707e 97be ffad 48be a0fe 2fbe 9cbf 793d
000002a0: 2110 45bd 5652 463b 917b 80be 3bc0 67be
000002b0: c04d 63be c2e8 e6bd 8553 c9be 3a28 ec3e
000002c0: f670 4bbb d69f 68bd f44e 923c 80ef 833c
000002d0: 9829 09bd ec58 83bc a415 3cbd 7499 55bd
000002e0: 4a8d 20bd 0208 58bd 4324 17be 3528 13be
000002f0: 8c7a 33be c46d 44be 92b1 00be a9a2 b13d
00000300: 4e0e 633c 3dce 973d a7ca 28bd 34e3 143d
00000310: ebd3 9abd 7bfd 833e dbba 403d 7416 bebe
00000320: 6cf9 403d 0a41 8dbc 7dcf cbbe d382 08be
00000330: d6a3 4ebe add8 62be d110 7f3f cd78 693e
00000340: f476 cf3c 7ecd 13bd ec17 33bd 90e1 b93b
00000350: 006e 03ba 4052 78bc a25b 5dbd eeb1 64bd
00000360: 4738 953c 1cc9 c63c 53ad 4bbd e276 febd
00000370: d038 b0bc 35f4 503d fe41 f33c 2ff8 efbd
00000380: 51be 00bd 2cf4 9abc 8de8 293f eb05 1dbf
00000390: d944 183f d6e0 813e 5d55 733d b05a 25be
000003a0: 8622 2d3c 3193 4ebd 5232 5abe de11 8bbe
000003b0: 6601 43be def8 8abe 4b99 53be 5154 b63e
000003c0: a480 cfbc 825a 083d 9580 5fbe 3623 5dbe
000003d0: 8787 39be 5551 06be f7cb cd3e 900e cf3e
000003e0: 9306 bebd 9829 5f3c da77 8cbe 805c fdbd
000003f0: 9121 3dbe 7223 43be af04 cbbd 9ed3 c83d

fc1.bias f4 [64]
-0.69705224 -1.5496274 -0.18501846 -0.36917648 -0.041142773 -0.021272486 -1.2057549 -0.9464894
-0.2011131 -1.2429434 -0.4839815 -0.123917885 -0.18955013 -0.639253 -0.0043294355 -1.3557961
-0.40902033 0.07118916 0.5131961 -0.28662935 -0.06668909 -0.05524775 -0.016397148 -0.5108103
-0.15329777 -0.008637542 -1.3469864 -0.105424695 -0.07621152 -0.3997825 -0.11269687 -0.4167007
-0.05841346 -0.2644875 1.0267596 -0.1000469 -0.5582093 -0.430989 -0.1323328 -0.5119181
-0.1720027 -0.90492535 -0.31162837 -0.24422994 -0.4255176 -0.26214883 -0.41668162 -0.8158241
-0.98123443 -0.029007152 -0.10032858 -0.102645084 -0.12049004 -0.98546445 -1.2756518 -1.9495981
-0.08760673 -0.11582538 -0.3439471 -1.4216444 -1.0111706 -0.08930213 -0.44067222 -0.2746141
00000000: 0472 32bf 315a c6bf 7b75 3dbe b304 bdbe
00000010: 5385 28bd a343 aebc 2d56 9abf 214d 72bf
00000020: 98f0 4dbe c518 9fbf 6ccc f7be a9c8 fdbd
00000030: 6e19 42be 16a6 23bf f0dd 8dbb ba8a adbf
00000040: 1d6b d1be 9fcb 913d d260 033f 15c1 92be
00000050: 4a94 88bd 774b 62bd 5053 86bc 77c4 02bf
00000060: 17fa 1cbe 7a84 0dbc 0d6a acbf e7e8 d7bd
00000070: c914 9cbd 4bb0 ccbe 9ecd e6bd cb59 d5be
00000080: f442 6fbd e86a 87be dc6c 833f 64e5 ccbd
00000090: cee6 0ebf 97aa dcbe 4082 07be 110d 03bf
000000a0: 7a21 30be 30a9 67bf c18d 9fbe 6a17 7abe
000000b0: 71dd d9be 5f38 86be 4b57 d5be d9d9 50bf
000000c0: 2e32 7bbf 68a0 edbc 1279 cdbd 9637 d2bd
000000d0: 7bc3 f6bd 6647 7cbf 8f48 a3bf 6e8c f9bf
000000e0: 286b b3bd db35 edbd d619 b0be 72f8 b5bf
000000f0: 0a6e 81bf 09e4 b6bd ca9f e1be 389a 8cbe

fc2.weight f4 [2, 64]
-0.09406139 0.099285424 0.08085853 0.1505319 0.54835653 0.24060155 0.14090343 0.16554023
0.3382329 -0.449901 -0.08898547 0.057272226 0.50708646 -0.21216546 0.4039957 -0.16669402
-0.07859302 0.31377313 -0.048024405 0.0709931 0.49511456 0.3626881 0.8203671 -0.054074693
-0.011219853 0.4964637 -3.5681214 0.037242863 0.05865993 0.34981453 -0.033368766 -0.17771932
0.06811866 0.21566138 -1.368917 0.19493051 -0.37627068 -0.015612199 0.044119645 0.4694018
0.2742881 0.059046905 -0.036238354 -0.008292706 0.46309045 0.43768644 0.433621 -0.60403717
0.31265128 0.21681078 0.10272083 0.05044038 0.47518906 -1.221628 0.019572683 -0.25110704
-0.060284514 0.05549963 -0.013493363 -0.037831694 -0.029536761 0.21463831 -0.7853516 0.35650182
0.07088933 -0.023986606 0.023089362 0.04675548 -0.43689358 -0.37805194 0.018165424 -0.15878873
-0.37248856 0.48441264 -0.095864125 -0.18100986 -0.39081132 0.14531712 -0.24880487 0.1414573
0.26513425 -0.12300453 0.19620864 0.026408195 -0.35231328 -0.21887639 -0.85796607 -0.11829541
-0.13150288 -0.515706 3.6409626 0.016506238 -0.053236563 -0.28980845 -0.07140323 0.06410637
0.0038383545 -0.21634965 1.4379723 -0.20190158 0.32633656 0.0436241 -0.081867285 -0.33252475
-0.5117098 -0.1071007 -0.07064199 -0.028318208 -0.35614404 -0.35568604 -0.51725537 0.5947092
-0.4274574 -0.34977874 -0.0069079166 -0.06704923 -0.50195295 1.2402731 -0.059215575 0.30653602
-0.10899604 -0.14776585 -0.03119817 0.08210912 0.17023477 -0.12416476 0.61734563 -0.37305012
00000000: 42a3 c0bd 2856 cb3d 2899 a53d 0925 1a3e
00000010: 1861 0c3f 4160 763e fd48 103e 6183 293e
00000020: dd2c ad3e 6d59 e6be 043e b6bd 4896 6a3d
00000030: 6bd0 013f e741 59be 86d8 ce3e d6b1 2abe
00000040: 61f5 a0bd dfa6 a03e 3db5 44bd d564 913d
00000050: a87f fd3e 41b2 b93e 9403 523f 6d7d 5dbd
00000060: 79d3 37bc 7d30 fe3e 1a5c 64c0 f98b 183d
00000070: 6545 703d e41a b33e b0ad 08bd 0efc 35be
00000080: cc81 8b3d 56d6 5c3e ac38 afbf dd9b 473e
00000090: 8da6 c0be 4fca 7fbc cdb6 343d 6f55 f03e
000000a0: 7d6f 8c3e 2bdb 713d ab6e 14bd 21de 07bc
000000b0: 311a ed3e 7018 e03e 9203 de3e 2ea2 1abf
000000c0: d413 a03e a503 5e3e 4c5f d23d 929a 4e3d
000000d0: fb4b f33e 4e5e 9cbf e456 a03c 1a91 80be
000000e0: e5ec 76bd 9453 633d 4413 5dbc 68f5 1abd
000000f0: 14f7 f1bc 25ca 5b3e cd0c 49bf 6887 b63e
00000100: 6d2e 913d 8f7f c4bc e725 bd3c ad82 3f3d
00000110: 84b0 dfbe 0690 c1be a8cf 943c 8399 22be
00000120: d2b6 bebe ef04 f83e 6954 c4bd a65a 39be
00000130: 6c18 c8be 03ce 143e b4c6 7ebe 2fda 103e
00000140: adbf 873e cde9 fbbd ebea 483e 0056 d83c
00000150: 6862 b4be 2221 60be aaa3 5bbf dd44 f2bd
00000160: b1a8 06be 4f05 04bf 8805 6940 1738 873c
00000170: 950e 5abd c661 94be db3b 92bd 334a 833d
00000180: e78c 7b3b c38a 5dbe 7a0f b83f 4abf 4ebe
00000190: 9615 a73e 2faf 323d 09aa a7bd af40 aabe
000001a0: 6aff 02bf 9d57 dbbd bfac 90bd 96fb e7bc
000001b0: 8358 b6be 7b1c b6be d96a 04bf dd3e 183f
000001c0: b2db dabe 3316 b3be ce5b e2bb 1b51 89bd
000001d0: fd7f 00bf 45c1 9e3f 088c 72bd 4af2 9c3e
000001e0: 5139 dfbd ee4f 17be 4e93 ffbc d428 a83d
000001f0: 0652 2e3e 184a febd 5d0a 1e3f 6d00 bfbe

fc2.bias f4 [2]
0.48606125 -0.4846177
00000000: 05dd f83e d01f f8be
